loan_model.pth (torch, 17254 bytes, 5 tensors)

fc1.weight f4 [64, 23]
00000000: 355c a6bd 13ad a0bd 6cac ef3d 33b7 b03b
00000010: 96bb 40bc 6835 033e 7615 68bd 3ae8 35be
00000020: 5ceb eebc c8a5 763e d57f 613e b336 c9bd
00000030: f7aa 6a3d 3fa3 24be bc0a bcbe b8fa 003d
00000040: d28d a93c 0a44 193d 4b6b e4be eeb6 1cbe
00000050: d3b4 a03d f4d2 393c 655f d93e afcf a2bd
00000060: 1652 0bbe 3868 39be 99b8 163e 1d9b e5bd
00000070: 53a1 0c3e 5216 17be 1cd1 6cbd 5772 903c
00000080: 7a0e ae3e 0658 0f3e 2609 acbc 1a34 0cbe
00000090: 8a21 17be da2b 5e3e 3142 ddbd f765 533d
000000a0: 87c9 283d 14b3 8a3e 3dcb 9e3d e7e8 663d
000000b0: cae2 71be 149d e23d 5dc5 c6bc db3f 22be
000000c0: e296 9c3d fc8c db3d c599 373d 899d 19be
000000d0: 9ff3 303e e71b 843e f759 aabd fec3 89be
000000e0: 165b 30be 0a68 df3d 68f2 2d3c 11ea d13d
000000f0: d1ac aa3b f08d 713c 5f4f 3a3d bb39 4dbd
00000100: c061 6c3a 7749 c9bc f773 69be 1989 853d
00000110: ce36 f73e 9846 b3bc a177 893c 2f09 2e3e
00000120: 818b 2fbe 75ba 0bbe 2959 4a3d bfc7 a23c
00000130: 3355 51be c394 0abe a47e d3bd 67a7 dfbd
00000140: fcbd 12bd 45a1 4e3e 1c0e f9bd 1608 5dbd
00000150: 8f75 eebd b5ef 7abd 8260 f6bd 99e0 853e
00000160: 521b c63c fae4 66be 8e35 343e f40e 89be
00000170: 7a95 e23d e66c 02ba 2905 503e fbc7 49bd
00000180: 9226 f3bc eeac 40be c717 1b3d 8d78 0ebe
00000190: f593 00bd 3c4e 91bd 1480 d93d de66 003e
000001a0: d8ff 6a3d 1845 07be 0409 7dbd c5a3 06be
000001b0: 4aa8 753d 42c3 bebd e515 11bf e09d e83d
000001c0: 04a6 1a3e 4551 c93d f3b0 dd3e 89ae c8bd
000001d0: 27c4 123e d132 9e3d 8912 003e c054 0ebe
000001e0: dec4 2cbe 2289 343e f08c 0dbe 2614 07be
000001f0: b8fd 833e efd7 433e 5293 37be 6628 1cbe
00000200: 8c70 e03d dab3 2d3c 8c57 22be 9e59 7c3d
00000210: 5cab 563d 69a8 68be 959f adbd 3438 023e
00000220: 1c0e 00be c608 a53c f567 a3bd e1eb 19be
00000230: cef2 2fbe 90cc 0abe 4436 24be 5685 59be
00000240: 1191 f2bd 5e22 353d 5dcd 33be d147 83bd
00000250: 727a 66bd 1ea0 96bc d84f 07be 87b4 38bd
00000260: 41ba b3be 0517 45be dc09 063e 757e e63c
00000270: d39f 043e 3740 bd3d c8f4 34be 90cb 69bd
00000280: 95c1 03bf 55a6 05bc 895e 9c3d 3eea 0abe
00000290: 3b8e 22be 927f e83d 6460 62bd acb6 183d
000002a0: c9dd 1ebe 0620 8dbd a784 583e b2a6 3a3e
000002b0: b719 03be a65a 52bd 9c57 42be 1f35 4bbe
000002c0: ddc8 1abd 7e49 a2bd a081 613d 5049 d93d
000002d0: 6d09 183e b6b1 d9bd f85a 103e 41eb a8bc
000002e0: 4e95 033e 75db 863c d399 49be ef83 a03d
000002f0: adce 3dbe e99e 2abe 7ea3 1fbe 7326 42bd
00000300: 7ff5 e0bd 5b8d 21bd 80c1 8ebe b5e8 053e
00000310: f40e 293d cb46 903d e477 9dbe 0a66 48bc
00000320: e058 dcbc 9304 fe3c 5eab f0bd 85dd 22be
00000330: 5bdb 62be cc01 893d fd49 19bf 7bc3 11be
00000340: afbe 5abd 0281 06be ca08 cd3d f895 c5bd
00000350: 134d fb3d 12c1 8a3d a26a f83d 2d40 59be
00000360: 02f4 cb3d a119 9ebc 5b47 233e 3cab e9bd
00000370: c037 453d 434a 193e 4557 8ebd ad4f d13c
00000380: f633 60be 4e40 b53e ed49 0a3e 465c b5bd
00000390: 3758 003e f5a1 bbbc 8675 27bd b60c 193e
000003a0: d4c3 32be 46d7 2a3d 188c e8bd b022 a7bc
000003b0: c0e6 113e 51fd a3be 1497 123d 41a8 703e
000003c0: dd61 643e ff7e c3bd feb5 423b e3da d93d
000003d0: 2b5f 70be 0a4b 293e fa31 17be 44ff 6abc
000003e0: f910 c8be 04f4 c7bb 5e11 0e3e 7841 47bd
000003f0: a7b7 a43e 80fb 4abd 8a22 0fbe aecd 653d
-0.08123056 -0.07845511 0.11702809 0.005392933 -0.011763474 0.12813342 -0.05666109 -0.17764369
-0.029164962 0.24086678 0.2202142 -0.09824886 0.05729195 -0.16077898 -0.3672694 0.031489104
0.020697508 0.037418403 -0.44613108 -0.15304157 0.078469895 0.011341799 0.42455593 -0.07949769
-0.13605532 -0.18106163 0.14718856 -0.11211226 0.13733415 -0.14754608 -0.05781661 0.017632646
0.3399542 0.13998422 -0.021000456 -0.1369175 -0.14758888 0.21696416 -0.10803641 0.051610913
0.041207816 0.2708975 0.077536084 0.056374457 -0.2362167 0.110651165 -0.024264032 -0.15844671
0.07645966 0.1072025 0.04482438 -0.15001501 0.17280434 0.25802538 -0.08317941 -0.26907343
-0.17222247 0.10908516 0.010616876 0.10249723 0.0052085896 0.014743313 0.04548585 -0.050103884
0.00090172514 -0.024571164 -0.22798143 0.0652029 0.48284 -0.021884248 0.016780676 0.16995691
-0.1714306 -0.13645346 0.049401436 0.019870637 -0.20442657 -0.1353331 -0.10326889 -0.10920601
-0.035825714 0.20178707 -0.12160894 -0.05396279 -0.11643516 -0.06126376 -0.12030126 0.26147917
0.02418295 -0.22548285 0.17598554 -0.2676922 0.11063667 -0.00049753336 0.20314468 -0.04926298
-0.029681478 -0.18815967 0.037864473 -0.13913174 -0.031391103 -0.07095 0.10620132 0.1253924
0.057372898 -0.13209951 -0.061776176 -0.1314841 0.059974946 -0.09314586 -0.56674033 0.11358237
0.15102392 0.09829954 0.43299064 -0.09798915 0.14332639 0.07724536 0.1250707 -0.13899517
-0.16871974 0.17630437 -0.13823295 -0.1319128 0.2577951 0.19125341 -0.17927292 -0.15249786
0.109589666 0.010601962 -0.15853709 0.061608903 0.052409515 -0.22720493 -0.084777035 0.12716752
-0.12505382 0.020145785 -0.079788126 -0.15031387 -0.17182466 -0.13554597 -0.16036326 -0.2124227
-0.118440755 0.04422223 -0.17558809 -0.06410182 -0.056269117 -0.018386897 -0.13214052 -0.04509404
-0.35103038 -0.19247063 0.13089699 0.028136471 0.12951593 0.09240764 -0.17671502 -0.057078898
-0.5146726 -0.008157332 0.07635219 -0.13565919 -0.15874569 0.11352457 -0.055267707 0.037283584
-0.15514292 -0.068908736 0.21144353 0.18227652 -0.12802778 -0.05135598 -0.18978733 -0.19844483
-0.037789214 -0.07924174 0.05505526 0.106096864 0.14847346 -0.10629599 0.14097202 -0.02061999
0.12849924 0.016462067 -0.19687586 0.07837664 -0.18535872 -0.16662182 -0.15589711 -0.04739995
-0.10984325 -0.039441448 -0.27882004 0.13077052 0.041274026 0.07044753 -0.30755532 -0.012231359
-0.026897848 0.03100804 -0.11751436 -0.15904815 -0.2215399 0.06689796 -0.5987852 -0.14234726
-0.053404506 -0.1313515 0.10011442 -0.09647745 0.1227056 0.067751065 0.121297136 -0.21215887
0.0995865 -0.01929933 0.15945189 -0.114096135 0.04814887 0.14969735 -0.06950239 0.025550688
-0.21894822 0.35400623 0.13504763 -0.088554904 0.12533651 -0.022904376 -0.040883563 0.14946255
-0.17457515 0.041709207 -0.11354846 -0.020402282 0.1424818 -0.32029203 0.03578861 0.23501684
0.22302957 -0.09545707 0.0029710527 0.106374525 -0.23473804 0.16532531 -0.14765158 -0.014343087
-0.3907545 -0.006102087 0.13873813 -0.04864642 0.32171366 -0.049556255 -0.1397802 0.056104355

fc1.bias f4 [64]
00000000: 0019 cd3d 2a29 283e 52c4 47bc b064 023e
00000010: 12d3 253e 0662 82be c4e2 c33c 87e6 923c
00000020: b68d cfbd 5f92 533d a0d2 fc3d 0230 50be
00000030: 931a eebd f2ce 803e 3ee8 463e 4c95 d13e
00000040: 9212 453e 491f 413e 9bc5 9a3e 8c84 e53d
00000050: 0996 8f3c eebb 683b 8c28 90be 349e 1c3d
00000060: b2f0 a63e 80cd a5be 3101 093e 46a9 253e
00000070: c17f 483d 8c17 21bd caaa 683e 529c 743e
00000080: f07d 0c3e 2a89 743e b948 973e ee2a 463e
00000090: 944a 723e a027 49bd 26aa 263e 5c45 3abe
000000a0: ea95 913d 763e 1e3e 9b23 b73e df7e 083d
000000b0: 899a 9f3d eadd 18be 2693 2e3e 3a13 643e
000000c0: b3bf 863e 7fd9 633d 0c4a c93c 96cb a83e
000000d0: 024f 3e3e 0f2e 8d3d 5013 dd3e b50e ffbc
000000e0: 7f68 89be 9889 babd 1e0a 5c3e be8c 05bd
000000f0: 1bdf 8b3e fb5e 403e 34de 05be d7aa 993d
0.10014534 0.16421953 -0.0121928025 0.12733722 0.16193798 -0.2546541 0.023911841 0.01793219
-0.10134451 0.051653262 0.12344861 -0.20330814 -0.116261624 0.25157887 0.19424531 0.40934217
0.19245365 0.1885959 0.30228886 0.11206922 0.017527597 0.0035512405 -0.28155935 0.03823681
0.3260551 -0.32383347 0.1337936 0.16177854 0.04894996 -0.039329097 0.22721401 0.23887756
0.13719916 0.23880449 0.2954767 0.19352314 0.23661262 -0.049110055 0.16275844 -0.18190521
0.07108672 0.15453514 0.35769352 0.03332412 0.07793147 -0.14928403 0.1704832 0.2227296
0.2631813 0.055627342 0.024571441 0.32967824 0.18584827 0.068935506 0.43178797 -0.031134943
-0.26837537 -0.09108275 0.21488234 -0.032604925 0.27318653 0.18786232 -0.13073045 0.07503288

fc2.weight f4 [32, 64]
00000000: 3d7b 9b3e 4bbd 34be 7ce8 633e 3e33 3ebe
00000010: a7d7 903e cff1 0d3e 9df9 9dbc b5d6 cd3d
00000020: cef6 15be acdc 473c 5db0 643d fc48 2fbd
00000030: c590 2c3e 02f3 033e 1ead 403e 3097 a8bd
00000040: 13cc 853e e1d3 123e 59c6 713e 80df b13c
00000050: a8e1 593d 3c4b 0fbd db71 093e 4b83 34be
00000060: d650 853e c909 ae3d 03d9 0c3e 4a33 913e
00000070: e8b3 c63d e7b7 723e 560d 803c 87bd a93d
00000080: 12dc 5a3e 967f 45be 712e 3fbe 112f a5be
00000090: c3e6 663d 84a2 fb3d d9d5 353e d613 de3d
000000a0: b251 ed3d b0a6 923e 339d b33e ca57 3a3e
000000b0: 6ae2 4a3e 4f35 0a3e 8c86 2d3e 6a2e c5bd
000000c0: 1b75 6b3e 06b1 adbc 76ea 333d a83c 283e
000000d0: a087 283e da6e d83c 5aaa c2be eeb0 ac3d
000000e0: 3b61 023e 3205 2e3d 1e9a 3e3d d6ef 183e
000000f0: 41c9 473e de9d ec3d e7fc 033e 0c5d 153e
00000100: 7f05 6e3e d18e 753d ea8c 7a3e aa70 0dbe
00000110: 89d8 263e 109e 2d3d 9ec3 fbbb e5de 133e
00000120: 89d6 91bd fd8b 963d 228b 143e fa4c 04bd
00000130: e48c 903b 4c04 713e 684a 983d 72b2 7abe
00000140: 8f53 2d3e b76c b03e 34c4 be3d 61c2 e63d
00000150: 3078 bfbc 4965 4abd 7931 b7ba ae6f e9bd
00000160: 8ce4 5a3e 0b54 273e 1000 853e e3c4 903e
00000170: 6116 583d d65b 413e 84b5 d2bd b303 223e
00000180: 2dd5 953e 394f 53bd c0c5 8ebe fc50 bcbe
00000190: ea3e d83d 2e22 923d 5c4b 443e 3669 c7bc
000001a0: 6d37 863e ec6e 653e cac1 943e fbca 033e
000001b0: bf34 1f3e cb6f 053d 70b4 663e 64da a3bb
000001c0: 9d92 d53d 0942 6ebd dd17 9a3c 176b 063e
000001d0: d517 a23e 840f 44be 4bd2 b7be 43c6 dc3d
000001e0: 7f98 f93c 29e8 0f3d 75a7 923e dfcb 5b3d
000001f0: 69e0 a63e 6000 6bbd f4a1 cfbc 98b3 9dbd
00000200: 4c39 a23e a1f6 1d3d 7b84 353e 9f5f 8abc
00000210: 6fff ea3d 377d 4f3e 235e 5d3d b0a5 c2bc
00000220: a9ff 72bd fd0a c2bc c56b e23d e3d6 a73d
00000230: cd49 a43c 525d 493e fd18 023e 5b03 81be
00000240: d196 0a3e 6bf8 bd3e fced 833e f2ba db3d
00000250: 3488 423d 9bf0 d8bd 3840 7fbd 0f38 74be
00000260: b647 693e c169 8a3e 3b1e e03d 0dfe 9d3e
00000270: 638d e43d 6c92 843e 6dfc c9bc e236 a73d
00000280: 0842 083e 7443 06bd 4fb4 a4be b2a9 bebe
00000290: 4817 093e 1583 483e 4229 483e 5ece 033d
000002a0: 7c11 c03d 9234 2e3e 4794 b33e bd22 6f3e
000002b0: c226 093d 2751 df3a 9469 ec3d 1d51 41be
000002c0: 14d1 d53d 188f a63d 4bb9 523e 6f68 293e
000002d0: 60fa b93e e9de b0bd be1a a0be 941c f23d
000002e0: 85fe f83b 9dde 593e 94f7 983e b9a2 f13d
000002f0: e84f a43e b166 9b3d 6fdc 303d 8b25 26bd
00000300: 43d4 9bbe ec26 eb3d e766 d5bd b0e3 8f3d
00000310: 0dee 39be 0f6a 99bd 7aeb 2f3e e4d6 fb3d
00000320: ffd3 253e dfaa 843d 2acd 913b b635 223e
00000330: 682d 8fbc 4934 27be b369 b4bc cad2 c73e
00000340: 26c8 c3bd 9b17 bebe 81a5 38be a93b 8fbd
00000350: e8fe 0a3e e865 2b3c f40a 0b3d eb03 a93e
00000360: 984b febd da42 40bd c1e4 f8bc cd7e 94be
00000370: b834 463d 4551 2bbe 8a82 e03d 45b6 15be
00000380: 6747 c8bd ad98 833e acc8 b93e 119c 113f
00000390: 19b5 59bd b0b8 933b c61c 0ebe caca a7bd
000003a0: 32b0 15be 3b14 23be 86ac d3be 8233 5e3c
000003b0: 444b 673d 98e7 3c3e ad1a b1bd 6df9 093e
000003c0: 071f 67be 26e3 393e 7656 9dbd d2b3 4cbe
000003d0: 9eb7 4dbe 6d2b 1b3e 2494 d63e 25a4 c0bd
000003e0: 4372 90bc f279 6f3d 09b6 77be 9afc 46be
000003f0: e11b 99be b13f 933d a8f9 2f3e f559 873d
0.3036746 -0.17650335 0.22256655 -0.18574235 0.2828953 0.13861774 -0.019284064 0.10050718
-0.1464493 0.012198608 0.055832256 -0.042794213 0.168521 0.12885669 0.18816039 -0.08231962
0.2613226 0.14338638 0.2361082 0.021713018 0.05319372 -0.03498386 0.13422339 -0.1762821
0.26038235 0.0849796 0.13754658 0.28359443 0.09702283 0.23702966 0.01563136 0.082881026
0.21373013 -0.19286951 -0.1867006 -0.3226247 0.056372415 0.12286857 0.17757358 0.10843627
0.11587848 0.28642797 0.3508087 0.18197551 0.19812933 0.13496898 0.16945857 -0.096279934
0.22993891 -0.021202575 0.04392477 0.16429389 0.16457987 0.026420046 -0.38020593 0.08432184
0.12732403 0.042485423 0.046533696 0.1493524 0.19510366 0.11553548 0.12889443 0.14586276
0.23244284 0.059950653 0.24467817 -0.13812509 0.16293539 0.04238707 -0.0076832315 0.14440496
-0.071209975 0.073509194 0.145062 -0.032299973 0.0044113267 0.23536795 0.07436067 -0.24482134
0.16926406 0.34457943 0.093147665 0.112675436 -0.02337274 -0.049413 -0.0013976536 -0.11398254
0.21376246 0.16340654 0.2597661 0.28275213 0.052755717 0.18882689 -0.102885276 0.15821724
0.29264203 -0.051589224 -0.27885246 -0.36780536 0.10558875 0.071354255 0.19169372 -0.02434216
0.26214162 0.22405595 0.290541 0.128704 0.15547465 0.032577317 0.22529769 -0.0050003994
0.10428355 -0.058168445 0.018810207 0.13126789 0.31658807 -0.19146544 -0.35902628 0.10780003
0.030468224 0.035133515 0.28643385 0.053661224 0.32593086 -0.057373405 -0.02534578 -0.077002704
0.3168434 0.03856528 0.17726319 -0.016891299 0.11474501 0.2026261 0.054044854 -0.023760647
-0.059325848 -0.02368688 0.11055712 0.08195283 0.020054722 0.19664505 0.12704845 -0.25197873
0.13534094 0.3710359 0.25767505 0.10729016 0.047493175 -0.10592767 -0.062317103 -0.2384951
0.22781262 0.2703381 0.10943266 0.30857888 0.1115978 0.2589296 -0.024656499 0.08164765
0.13306439 -0.032779172 -0.32168815 -0.37238842 0.13387787 0.19581254 0.19546989 0.03217923
0.09378335 0.17012241 0.35074064 0.23353095 0.033484228 0.0017037735 0.11543575 -0.18878599
0.10440269 0.08132762 0.20578496 0.16543745 0.36323833 -0.08636267 -0.31270403 0.11821857
0.0075987005 0.21276326 0.29876387 0.11798615 0.32092214 0.07587946 0.04317897 -0.040563148
-0.3043538 0.11482033 -0.10420018 0.0702585 -0.18157215 -0.07490932 0.17179671 0.122968465
0.16194151 0.064779036 0.0044495063 0.15840802 -0.017477706 -0.16328539 -0.022023058 0.39028007
-0.0955966 -0.37127385 -0.18031885 -0.06993801 0.13573802 0.010461308 0.033945993 0.33010802
-0.12416762 -0.046938755 -0.030382516 -0.2900299 0.04839012 -0.1673022 0.10962398 -0.14620312
-0.09779244 0.2570242 0.36285913 0.56878763 -0.053151224 0.0045081005 -0.13878164 -0.08192976
-0.14617994 -0.15925686 -0.41342562 0.013562085 0.056468263 0.18447721 -0.08647666 0.13474055
-0.2257043 0.18153057 -0.07682507 -0.19990471 -0.20089576 0.15153284 0.41909897 -0.09406308
-0.01763261 0.058465905 -0.24190535 -0.19432297 -0.29904082 0.071898825 0.1718508 0.06608955

fc2.bias f4 [32]
00000000: 3249 863d f982 943d 6fe5 43bd 0075 953d
00000010: 60c1 a8bd 938c 3b3d 99b2 8fbc 56af a33a
00000020: dcc1 a8bd f329 3d3d 966b e3bd 18a2 0a3e
00000030: 47e2 423d 043b 02be 0364 a83c baa6 f93d
00000040: f80d 7ebd c2f7 893e 6096 ee3d eaa5 5b3e
00000050: d74d 8e3d 738f 49bd 494a 8d3d eb35 4dbc
00000060: 89e0 c5bd 09c8 49bc 69ec d03c 0fe3 8b3d
00000070: c16d d23b 3996 603e b3af a63d 8c7a 313d
0.0655693 0.072515436 -0.047826227 0.072977066 -0.08240008 0.04578836 -0.017541217 0.0012488167
-0.08240101 0.046182584 -0.11104505 0.13538396 0.047579076 -0.12717825 0.020555502 0.12190004
-0.06202504 0.26946837 0.116497755 0.2145001 0.069484405 -0.04920907 0.068989344 -0.012525062
-0.09661967 -0.0123157585 0.025503354 0.06830417 0.006421775 0.21932305 0.08138981 0.04332976

fc3.weight f4 [1, 32]
00000000: 06f7 89be e495 dcbe b50e c9be ed99 4c3f
00000010: ae11 96be 6b51 2a3f 18c4 a4be 38a3 dcbe
00000020: b6db d6be d161 0f3f 9363 c1be f1ce 333f
00000030: d6bc a0be 028b e73d 4600 02bf 71b8 2a3f
00000040: 3403 bdbe dca5 363f 76d1 3a3f 8759 213f
00000050: f0b0 71be a73f 683c 088d 1f3f be53 dd3e
00000060: 206a f63b 21ac 0abf c81e a7be ca48 353b
00000070: dd30 7fbe b62c 393f 1ad3 243f 7329 483f
-0.26946276 -0.43083107 -0.39269033 0.7992237 -0.29310364 0.66530484 -0.32180858 -0.43093276
-0.419645 0.5600863 -0.37771282 0.7023764 -0.3139407 0.113058105 -0.5078167 0.66687685
-0.36916506 0.7134683 0.7297586 0.6302723 -0.23602653 0.014175332 0.6232457 0.43227953
0.0075199753 -0.541689 -0.32640672 0.0027661794 -0.24920984 0.7233385 0.64384615 0.78188246
